src/main/python/llm/wakeword/models/binny_ww_v2.tflite (tflite, 206748 bytes, 9 tensors)

Const_1 f4 [32]
000000 1c 13 c8 3c 66 d1 19 3c 82 da 75 3c eb 42 c9 bc
       0.024423175 0.009388303 0.01500571 -0.024568042
000010 ce e6 bc 3c 39 0f 96 bc 32 f3 6a 3c e3 00 77 bc
       0.023059275 -0.018317806 0.014340209 -0.015075895
000020 70 c8 52 bc cf 7f 2f bc 81 62 13 3d db 53 85 bc
       -0.012865171 -0.010711624 0.035982613 -0.016275337
000030 da d4 6e 3b 51 87 26 bc 23 18 9a bc 67 ef a0 3c
       0.0036442787 -0.010164098 -0.018810337 0.019645406
000040 98 c8 12 3c 72 5e bc bc 99 ac 96 3c 83 64 a7 3b
       0.008958958 -0.022994254 0.018392848 0.0051084175
000050 45 25 10 bc 8b 2e d7 3b a0 dc 95 bc 72 0f 8f 3c
       -0.008797948 0.0065668277 -0.018293679 0.01746342
000060 f1 6a ab bc 3a a0 8f bc c1 24 c3 3c c7 e8 49 bc
       -0.020925017 -0.017532457 0.023821237 -0.012323565
000070 29 27 a9 bc d4 28 e0 3c 59 83 59 3c 80 43 54 bc
       -0.020648556 0.027363218 0.013275945 -0.012955546

Const_2 f4 [32]
000000 4e dc 81 3f af 32 81 3f 1a cc 73 3f 69 97 7e 3f
       1.0145357 1.0093592 0.9523331 0.99449784
000010 6b fc 7a 3f f7 98 7e 3f 84 73 83 3f 84 b2 75 3f
       0.9804141 0.99452156 1.0269628 0.9597552
000020 41 41 74 3f cb 45 80 3f 25 b7 86 3f b0 a6 7f 3f
       0.9541207 1.0021299 1.0524641 0.9986372
000030 f2 38 82 3f b8 af 70 3f 12 5d 7f 3f 95 8f 82 3f
       1.0173628 0.94018126 0.9975139 1.0200068
000040 18 19 83 3f c1 d1 7e 3f b1 57 84 3f 44 0d 7d 3f
       1.0242033 0.9953881 1.0339261 0.98848367
000050 84 34 8c 3f 9c 84 72 3f f0 9e 7b 3f 3f 15 7b 3f
       1.0953526 0.94733596 0.98289394 0.98079294
000060 11 e8 7b 3f b1 cf 79 3f 7c 5e 6e 3f 10 96 84 3f
       0.9840098 0.97582537 0.9311292 1.0358295
000070 71 27 70 3f 83 27 79 3f b0 96 80 3f bb ff 7b 3f
       0.9381018 0.97325915 1.0045986 0.9843709

Const_3 f4 [32]
000000 01 e5 4e 3c ba 01 34 3c 74 a4 25 bd bd 99 af 3c
       0.012627841 0.01098674 -0.040440038 0.021435613
000010 ed 7e 35 3d 56 59 05 b9 5c 18 74 3d f7 9e 85 bd
       0.0443105 -0.00012717149 0.059593543 -0.06524461
000020 f6 49 36 bd 69 9e a5 bb 0f e0 cd 3c 12 41 47 3b
       -0.04450413 -0.0050542844 0.025131254 0.0030403775
000030 5b a6 00 3d a3 17 a1 3c 64 6a 02 bc 88 29 1f 3c
       0.03140865 0.019664591 -0.007959936 0.009714492
000040 22 61 81 3c 37 47 9e 3c 22 60 4f 3c 6c 44 2b 3c
       0.015793387 0.019321067 0.012657197 0.010453325
000050 08 8b 3e 3d 32 f4 23 3c 22 f6 5f 3b cd 36 d7 bc
       0.04651931 0.010006951 0.0034173806 -0.026271248
000060 ea 10 ad bc 0e 04 a1 bc 90 6e 6b bd 71 00 de 3b
       -0.02112623 -0.019655254 -0.057478487 0.006774955
000070 c8 a0 e3 bc 02 2f 8d 3c 77 14 e5 3b 7c c0 d0 bb
       -0.027786627 0.01723433 0.006990965 -0.006370602

Const_5 f4 [32]
000000 18 e9 12 3d 7f 17 e2 3d 09 73 09 be 95 00 11 3e
       0.035866827 0.11039638 -0.13422789 0.14160378
000010 58 2b 03 bd 80 cc ef 3d f2 a4 07 3e 02 5c 18 3e
       -0.032023758 0.11708927 0.13246515 0.14878848
000020 89 b6 f2 3c 3e c4 0d 3d 2b fb 17 bc 8f 33 aa 3d
       0.029628055 0.03461098 -0.009276192 0.08310615
000030 b2 ff fe 3d d9 bb 9d bd a4 6e fa 3d 73 41 c5 3d
       0.12451114 -0.07701845 0.12228134 0.09631624
000040 cc be 01 bb bf fc fe 3b ce 58 41 bc 63 c2 0b 3b
       -0.0019797562 0.0077815945 -0.011800958 0.002132558
000050 d6 d5 eb bd c0 3e 57 bd 9a 2f f1 3d 49 fd da 3d
       -0.11515395 -0.052550077 0.117766574 0.106928416
000060 bc dd 0c 3d f7 ae 18 3e c0 da 5a 3d 9a bf 47 3e
       0.03439115 0.14910494 0.053431273 0.19506684
000070 fe 2b 48 3d f1 84 89 bd d1 7f 53 bc af 3b 09 3e
       0.04887008 -0.0671481 -0.012908892 0.13401674

Const_6 f4 [32]
000000 12 5b 87 3f ae 91 8e 3f c1 6a a4 3f 80 bd 86 3f
       1.0574667 1.1138208 1.2845079 1.0526581
000010 ad 34 77 3f 22 34 a6 3f 61 b3 67 3f 34 b2 8a 3f
       0.9656475 1.298466 0.90508085 1.0835633
000020 bc 0a 8f 3f 2a d3 85 3f d4 24 b4 3f e6 c5 8c 3f
       1.1175151 1.0455067 1.4073739 1.0997894
000030 ad 0f a0 3f 53 ad b2 3f 9e a6 91 3f 5b 32 8f 3f
       1.2504784 1.3959144 1.1378973 1.1187242
000040 24 3a 8a 3f 78 3a 8c 3f 51 e8 8d 3f cd 38 87 3f
       1.0798993 1.0955343 1.1086522 1.0564209
000050 70 45 8e 3f 3a 7e 8f 3f d2 bd 9f 3f f9 5a 88 3f
       1.1114941 1.1210396 1.2479804 1.0652763
000060 c1 a1 ac 3f 5a 65 8f 3f bb 58 8b 3f c5 9f a0 3f
       1.3486863 1.1202805 1.0886453 1.2548758
000070 e6 4d 9c 3f c3 d7 ae 3f 3a c4 8f 3f 9e c4 90 3f
       1.2211273 1.3659595 1.1231759 1.1310003

Const_7 f4 [32]
000000 b4 92 13 bd 53 81 5e 3d ba 36 8c 3e 35 fa 75 3d
       -0.03602858 0.054322552 0.27385503 0.06005307
000010 a1 77 25 bd f5 f6 8e 3e 05 14 be bd dc aa 59 3d
       -0.04039729 0.27922788 -0.09281162 0.05314146
000020 af f0 85 3d d3 c6 2d 3d 88 c9 a9 3e 67 4b 8e 3d
       0.065400474 0.04242594 0.3316157 0.069479756
000030 4d 33 81 3e 72 71 a7 3e 71 72 04 3c ec 36 93 3d
       0.25234452 0.3270374 0.008083926 0.0718821
000040 64 b0 86 3c 03 e5 77 3d 7b ae db 3d 17 24 90 3d
       0.016441531 0.060521137 0.10726639 0.070381336
000050 b6 14 83 3d 54 d4 80 3d 5f e8 80 3d c3 7c 4a 3d
       0.06400435 0.062904984 0.06294321 0.04943539
000060 41 00 97 3e 6e 67 a4 3d c8 71 1e 3d 22 45 40 3e
       0.2949238 0.0802754 0.03868273 0.18776372
000070 0e 1e 75 3e ee cd 9b 3e 23 b9 51 bc a9 c6 b8 3d
       0.23937246 0.3043055 -0.012800488 0.090222664

MatMul f4 [32, 1536]
000000 cc 79 50 bc 16 31 23 bc be 9f 42 3c 49 57 da bb
       -0.012724351 -0.0099604335 0.011878906 -0.006663237
000010 6f 4d f9 ba 50 4f 59 bc e2 e7 67 3c a9 3f ec bb
       -0.0019020269 -0.0132635385 0.014154406 -0.0072097373
000020 61 f4 1f 3d 23 1f aa bc ac e4 3a 3b 43 43 07 3d
       0.039051417 -0.0207668 0.0028517647 0.03302313
000030 08 c0 1b bc ba 9c 8b ba ae 67 ad 3b 01 80 9f ba
       -0.009506233 -0.0010651567 0.0052919006 -0.0012168885
000040 89 05 b0 bb 91 4d 9a bb aa 42 38 bd 66 28 53 3c
       -0.0053717536 -0.0047089537 -0.04498545 0.01288805
000050 38 21 85 3c 8f 26 22 bc 61 d1 82 3a 30 f0 36 bc
       0.016251191 -0.009896888 0.0009980613 -0.011165664
000060 fa 5d 8a 3b 9e 78 9f bc 1c 85 d6 3b b1 9b 07 3b
       0.0042226287 -0.019466694 0.0065466296 0.0020692165
000070 d6 e1 0e bc fb 66 23 3c ea df 12 bd b0 89 c1 3c
       -0.008720836 0.009973283 -0.035858072 0.023625225
000080 52 7f de bc fb 2b a1 39 a5 d7 5a 3c e3 c4 79 3c
       -0.02716032 0.0003074108 0.013357078 0.015244695
000090 31 31 bd 3c 68 85 e0 bc a2 82 d9 ba 2e e1 17 bc
       0.023094745 -0.027407363 -0.0016594718 -0.009269996
0000a0 aa b4 96 3b 1f cb 1e bd a0 b1 d7 3b 6f ae 9e ba
       0.0045991736 -0.03876793 0.006582454 -0.0012106429
0000b0 b6 ff 62 bb dc 18 a9 bc 6e e1 25 3a 62 13 90 bc
       -0.003463728 -0.020641737 0.0006327842 -0.017587367
0000c0 2d 0b ef b9 0d 11 15 bc c1 33 af bc 90 1b da 39
       -0.0004559396 -0.0090983035 -0.021386983 0.00041600736
0000d0 04 30 7f 3c aa e2 d4 bb 33 0c f5 3b f2 82 24 bc
       0.015575413 -0.006496747 0.007478261 -0.010040985
0000e0 e2 01 fb 3a 11 c1 d9 bb 69 47 f4 bb 54 ac 73 3b
       0.0019150341 -0.0066453298 -0.007454802 0.0037181573
0000f0 8a 2c 56 3a 19 4b c6 bc 3d 9d 65 3c e9 60 c4 bb
       0.0008170089 -0.024205731 0.014014539 -0.005992998
000100 24 4e f3 3b 96 2b a4 3b ba 61 1d bd 51 77 fc 3b
       0.0074250866 0.0050100787 -0.038423277 0.0077046533
000110 70 49 83 3c 5c ca a3 3c b8 24 2b 3c f9 70 7d 3c
       0.016026229 0.019993953 0.010445766 0.015468829
000120 99 cb a4 3c 8a e0 24 bd e4 a5 48 bb bf 16 90 bc
       0.020116614 -0.0402532 -0.0030616457 -0.017588971
000130 e3 1f 8e 3c 24 56 20 3c 7a be 09 bd b5 1c 8f bc
       0.01734919 0.0097861625 -0.03362892 -0.017469743
000140 95 a9 4e 3c 05 07 88 3c f1 d1 b8 3c 2f ab b7 bc
       0.012613674 0.01660491 0.022561045 -0.022420494
000150 be 27 ea bb 93 33 44 3c 11 07 04 3d d3 d1 47 3c
       -0.007145851 0.011975187 0.0322333 0.012196022
000160 9d fd 24 bc e2 8b 7e 3b 65 88 c3 bc 49 96 4f 3b
       -0.010070232 0.00388407 -0.023868749 0.003167527
000170 01 85 e9 3a 2f 9e f1 3b 54 4d 3d bc c1 6d fd bb
       0.0017816128 0.0073735933 -0.011554081 -0.007734031
000180 41 ca 37 3c 3c 40 d3 bb 9b 49 3b bb de e5 b0 3a
       0.011217655 -0.0064468663 -0.0028577808 0.001349624
000190 d6 c8 63 3c d6 ce ca 3c 0f dc a6 3b 34 47 9e bc
       0.0139028635 0.02475683 0.005092151 -0.019321062
0001a0 58 e1 80 3c ac 00 8c bc 9e ab 63 3c 9e 49 d3 3a
       0.015732452 -0.017090164 0.013895897 0.0016119962
0001b0 e3 57 5f 3c 87 1f 9e 3c 42 0d 41 3b 88 6d 62 bb
       0.013631794 0.019302143 0.0029457365 -0.003455015
0001c0 96 5f 11 3d 98 4f c9 3b bf 1c f8 ba be 2f 48 bc
       0.03549155 0.0061435215 -0.0018929465 -0.012218414
0001d0 24 3f 7f bc 99 20 b7 3c 3c f5 15 bd 05 3e 24 3c
       -0.015579019 0.022354411 -0.036610827 0.010024552
0001e0 df 52 1e 3c 6f 5c 3c 3c dc 0f ef bc b9 cb ca 3a
       0.009663313 0.011496647 -0.029182367 0.0015472091
0001f0 a6 63 2c bc 99 4d fa bb e3 43 30 bc b2 a5 b8 3c
       -0.010521805 -0.007638645 -0.010758373 0.022539947
000200 95 8c b2 bc 69 da e1 3c e5 88 a0 bc a3 92 68 3c
       -0.02179555 0.027569966 -0.019596526 0.014195117
000210 39 4b 25 bb 80 99 12 3c ed 92 c2 bc 6c b8 86 3c
       -0.0025221838 0.00894773 -0.0237517 0.016445361
000220 ed cc 3a b9 38 5d 93 bb d0 a0 da 3c 3e 41 fb bb
       -0.00017814683 -0.0044971965 0.02668801 -0.0076676896
000230 37 16 ce 3c 79 f7 5a 3a 9a 2d 15 bb e6 6c a9 3b
       0.025157077 0.00083529163 -0.0022762776 0.0051704524
000240 c5 3e b7 3b 42 b0 bd 3c 5a 9b 3c 3b a3 f1 92 bb
       0.0055921995 0.023155335 0.002877912 -0.0044843717
000250 b6 d3 23 bb 8c ed f4 bc e6 94 41 bc 4c 48 a9 bb
       -0.0024998016 -0.029898427 -0.011815285 -0.005166089
000260 fb f2 fe 3c ab 3a 11 3d fc a1 60 ba 25 60 90 3c
       0.031121721 0.03545634 -0.00085690594 0.01762397
000270 97 54 69 3c 9e a0 84 bb 53 4c 7f bc 69 45 fa 3a
       0.014241359 -0.0040474674 -0.015582162 0.0019094172
000280 f5 76 08 3d 65 33 8b bc 34 bb 23 bd 26 c0 4c 3b
       0.03331657 -0.01699228 -0.039973453 0.003124246
000290 06 8d b3 bc eb ce 80 3c db 05 3c bc 34 86 b2 bb
       -0.021917831 0.015723666 -0.011476005 -0.005448127
0002a0 33 14 68 ba 04 ba 80 bc 48 f5 83 3b 7c 22 76 3c
       -0.00088531076 -0.0157137 0.0040270425 0.01502287
0002b0 cf 53 24 3b e5 cf 54 3c e0 e5 39 bc b0 99 bf bc
       0.0025074368 0.012989019 -0.01134631 -0.023388714
0002c0 8a 3e 46 ba 83 21 b2 bc 33 f0 17 3d 00 c7 92 bb
       -0.00075624196 -0.021744495 0.037094306 -0.004479289
0002d0 95 86 f6 3b eb a4 9d bb 9d 78 e5 3c 4d a1 9b 3b
       0.0075233676 -0.0048109195 0.028011614 0.004749453
0002e0 96 8b 1a 3c b9 d4 9d 3c 0c 1e b5 bc 64 f0 db 3c
       0.009432694 0.019266473 -0.022109054 0.026848026
0002f0 45 78 20 3c b3 45 c0 bb 85 94 69 bb 02 d5 8e bc
       0.0097942995 -0.005867684 -0.0035641503 -0.017435554
000300 c1 c7 d7 bc 4c e9 cf 3c 23 04 b7 3b d9 9e b8 3c
       -0.026340367 0.0253798 0.00558521 0.022536682
000310 8f c5 06 bc dc b3 6d 3c a7 32 b5 ba 0c e3 2f bc
       -0.008225813 0.014508214 -0.00138243 -0.010735285
000320 c0 4b c4 3c 42 da bb 3c a0 a4 30 3c 8c 8b 0a 3a
       0.023961902 0.022931222 0.010781437 0.00052850763
000330 eb e2 53 3c 21 6f 6f 3b 91 2f bf bb 11 80 ed bb
       0.012932519 0.0036534744 -0.005834528 -0.0072479327
000340 6a de 70 bc 96 0c 57 bc 46 bb de 3c c7 e8 40 3c
       -0.014701465 -0.013125559 0.027188908 0.011774248
000350 af f8 97 bb 02 6d a6 3b eb 65 8b 3c f1 8b 4e 3d
       -0.0046377997 0.0050789127 0.017016372 0.050426427
000360 e6 d0 fa bc 30 87 c5 3b 58 ce 94 bc 6a d4 64 bc
       -0.030617189 0.0060280785 -0.018164799 -0.013966659
000370 9a 40 f6 bc 8a fc 36 3d ed d1 1f bd ef 03 b5 3c
       -0.030060101 0.044674434 -0.03901856 0.022096602
000380 d8 0a 1d bb 08 f8 a9 3c 6d 08 07 3c a6 5b 98 3c
       -0.0023962762 0.020748153 0.008241755 0.018598389
000390 7c 40 50 3c 99 45 5b 3c f9 41 3f 3c 0d 2e 6e 3c
       0.012710687 0.013383293 0.011673444 0.014537347
0003a0 22 7e 94 bc 1a d8 2a bd 8f cd de 3c ae 8d a4 bb
       -0.018126551 -0.041709997 0.027197627 -0.0050217723
0003b0 4c 1b 71 bc de 26 2c ba c6 29 72 bb 01 c6 99 bc
       -0.014715981 -0.0006567071 -0.0036951168 -0.018771173
0003c0 0d 7b e8 3c 31 c8 76 3b 92 ad 36 3c 03 5d 35 3c
       0.028378988 0.0037655944 0.011149781 0.011069539
0003d0 d4 b7 d9 3c b8 55 f7 bc 6e 8e 64 3c b0 08 86 3b
       0.026576914 -0.030192241 0.0139499735 0.004090391
0003e0 e9 15 ab bb e3 6e be 3c be 74 18 bc 0d cf ec bc
       -0.0052211178 0.023246234 -0.009305177 -0.028907323
0003f0 d3 eb f6 bb 5d c9 a2 bb 19 a1 1a 3c 9b 65 73 bc
       -0.0075354367 -0.004967852 0.009437823 -0.014855768

MatMul_1 f4 [32, 32]
000000 5c 33 80 3d 9f ba 0a 3e e0 b3 2f 3e 24 38 a6 bd
       0.06259796 0.13547753 0.1715846 -0.08116177
000010 53 46 b1 bd a6 21 99 bd b3 17 95 bd a2 1c 10 3e
       -0.086559914 -0.07477121 -0.07279911 0.14073423
000020 b3 ba 17 3e 75 14 6e bc 40 b9 be 3d 03 4a 4a 3e
       0.14817314 -0.0145312445 0.093126774 0.19754796
000030 f1 99 83 bd 3c 4e 22 3e 93 bb 12 bd a4 05 aa 3c
       -0.06425846 0.15850157 -0.035823416 0.020754643
000040 30 cd bf bc f4 c0 dc 3c 94 97 b2 bc 7c fa c4 3d
       -0.02341327 0.026947476 -0.021800794 0.096180886
000050 01 75 d8 bd 7e c7 cf 3d f1 02 94 3d 17 0d 91 bc
       -0.10569192 0.10145472 0.072271235 -0.017706437
000060 13 75 18 3e fe 4e a3 3c b3 77 a1 bd 2b 0d 2f 3e
       0.1488841 0.019935127 -0.07884159 0.17094867
000070 04 f9 92 bd b2 26 b6 bd a1 65 f4 bd ee 26 83 3d
       -0.07176402 -0.08894099 -0.11933447 0.064039096
000080 15 03 1d 3e 48 66 da 3d f1 bc 38 bd ca 4a 4d bc
       0.15333207 0.1066404 -0.045102064 -0.012530038
000090 d1 03 a7 bd e0 83 7a 3d e2 77 66 3d eb 20 0b bc
       -0.08155025 0.061160922 0.056266673 -0.008491735
0000a0 d2 f2 d8 3b e8 89 9f 3c 01 91 41 be c4 c3 3a 3e
       0.0066207433 0.019474939 -0.18902971 0.18238741
0000b0 03 fe 5f bb 32 c4 d7 3d 48 f5 9d 3d bd a1 1d 3e
       -0.0034178502 0.10535468 0.07712799 0.1539373
0000c0 a0 e5 27 be c2 3b f1 3d b4 76 e9 bd 4b b6 d7 bd
       -0.16396189 0.11778976 -0.11399594 -0.105328165
0000d0 e5 4f 22 be 02 12 93 3d cb 7a fb 3d 37 a6 3e bc
       -0.1585079 0.07181169 0.1227928 -0.011636308
0000e0 19 f6 10 be 3e c0 5d bd 4d c2 99 bd 81 25 d8 bd
       -0.14156379 -0.054138415 -0.07507763 -0.10554028
0000f0 77 12 9d bc 96 a6 ec 3c 6f ca f6 3d 6a 5f a9 bd
       -0.019173844 0.028888028 0.1205033 -0.08270152
000100 51 f0 40 3e bf 7f b4 3d a8 81 bf bd 64 50 cd bd
       0.18841673 0.08813428 -0.09350902 -0.10025099
000110 13 af 8d bd 5e 62 ac bd 88 13 9d 3d f5 d6 8b 3d
       -0.069181584 -0.084171996 0.07669741 0.06828109
000120 fa d1 3f bd e4 7a 43 bc 68 ee 18 3e 23 ee dc 3d
       -0.04683111 -0.011931155 0.14934695 0.107876085
000130 2d 61 bf bd d9 fa fa bd d1 cb 1d be 2b 01 3f be
       -0.09344707 -0.12254877 -0.15409781 -0.1865279
000140 c5 e1 21 3d 0a fa 0b 3e 1f 59 49 bd 05 80 5c 3c
       0.03952195 0.13669601 -0.049157258 0.013458257
000150 ea f1 f4 3c cd 11 86 bd 1b 76 19 3e 44 be c4 3d
       0.02990051 -0.06546364 0.1498646 0.09606603
000160 40 51 6f 3d 44 c6 2f 3e 31 ea 8b bd 8a 2c 69 bd
       0.058427095 0.17165476 -0.06831778 -0.05692724
000170 dc be e1 bb c3 f2 0a bd 71 99 b9 3d 3e a8 fd bd
       -0.0068892073 -0.033922922 0.0906247 -0.12385605
000180 d0 8f 8a bd 94 8d 0a be ed 9d 01 be 7c 4f f2 bc
       -0.06765711 -0.1353057 -0.126579 -0.029578917
000190 a3 9b a0 3d dc e8 48 3d 08 25 ff bd 6a e5 79 bd
       0.07842185 0.049050197 -0.12458235 -0.061009802
0001a0 87 8d f0 3d d0 ce aa 3d f8 5b d1 3c b3 10 2f 3d
       0.11745744 0.083402276 0.02555655 0.042740535
0001b0 bf 41 88 bd 38 ae ee bd 48 c1 49 3e 67 35 a6 3d
       -0.06653165 -0.11654323 0.19702637 0.081156544
0001c0 9a ab 23 3c 89 76 ec 3d b8 d3 8e 3d 7d 27 ee 3b
       0.0099896435 0.11546046 0.06973976 0.007267891
0001d0 21 e3 ba bd 64 1c 03 3e eb 81 9b 3d 99 66 97 3d
       -0.09125353 0.12803799 0.07593139 0.07392616
0001e0 0c c1 f0 bd d6 84 10 bd 8c b8 40 3e 4f 9f cf 3d
       -0.11755571 -0.035282932 0.18820399 0.101378076
0001f0 e9 2e 52 3d 04 e1 f1 bd 82 9a 82 bd 0a 83 0b 3d
       0.05131427 -0.118104964 -0.06377126 0.034060515
000200 d3 d4 14 be 73 e7 d3 bd d4 22 e9 3d 5d 35 ec bb
       -0.14534311 -0.1034688 0.11383596 -0.00720851
000210 ef 9b 88 3c 87 c5 01 3e e1 6c 97 bd 90 7f aa 3d
       0.016675917 0.12673007 -0.07393814 0.08325112
000220 24 65 7f bb 96 b1 ad bd 0a 7c d4 bc 79 27 13 be
       -0.0038970197 -0.084811375 -0.025938053 -0.14370526
000230 f1 be f5 3d fa 84 71 3b 44 71 2c be 1d 17 12 bd
       0.1199931 0.0036852942 -0.16840082 -0.035666574
000240 1e fe 11 3d 51 ec 76 3d c0 1a 41 bd db 80 68 3d
       0.035642736 0.060283963 -0.04714465 0.05676351
000250 8b bc 1e be ad 32 f7 3d 36 b5 7e 3d 23 fd 69 3d
       -0.15501611 0.120702125 0.062184535 0.057126176
000260 13 fc 6c 3c 3e 72 f1 bc 63 db 84 bd e8 b4 a0 3d
       0.014464396 -0.02947342 -0.06487157 0.07847005
000270 10 75 cd bd 8b 23 85 bc b9 81 20 3e 54 3f ec 3d
       -0.100320935 -0.0162523 0.15674485 0.115355164
000280 9b 08 a3 3d fb 52 20 be bb dc 12 be a8 8f bf 3d
       0.07960626 -0.15656655 -0.14342014 0.09353572
000290 2f 4d b4 bd 13 04 1f be aa 07 1c 3e 03 b9 3e bd
       -0.08803784 -0.15528898 0.15237299 -0.04656316
0002a0 36 a5 35 be 05 ce 04 3e 5a 42 21 3e 3b 75 a1 bd
       -0.17738804 0.12969215 0.15747967 -0.07883688
0002b0 71 6a fa bd 7f d3 9c 3d 25 94 87 bc b1 34 ad bd
       -0.12227333 0.07657527 -0.016550133 -0.08457316
0002c0 9d 2b 6e 3e 4c 3a 9c bc 21 87 0c be 9d b5 31 be
       0.23258825 -0.019070767 -0.13723423 -0.17354436
0002d0 d3 48 e0 bd 80 90 79 bd 78 03 1c be 4c 87 0f 3c
       -0.1095139 -0.06092882 -0.15235698 0.008760285
0002e0 c1 11 e4 3d 68 bd 1e be b2 57 8b bd 01 13 04 be
       0.11136199 -0.1550194 -0.06803836 -0.12897874
0002f0 bb 24 4a bd e0 c1 f1 3c 12 7f 68 bd a4 9b 9b bd
       -0.049351435 0.029511392 -0.05676181 -0.075980455
000300 2a 9b f4 bd 62 99 ac 3d a4 b5 dd bd 1a 4c 0b 3e
       -0.11943658 0.08427693 -0.10825661 0.13603249
000310 7c de d2 bd ed 16 9c 3d 9b 1f 86 bd 5a f9 6d 3c
       -0.10296342 0.0762156 -0.06548997 0.014524782
000320 c0 57 4e 3c 4f bf 88 3d d8 d1 49 bd 35 10 81 3d
       0.012594163 0.06677114 -0.04927239 0.06301919
000330 b1 e4 33 bb 81 8b 33 3d f5 71 8e 3c 5f 77 ae bc
       -0.0027449543 0.043834213 0.017388323 -0.021297155
000340 1c da 21 bd 35 ca c7 3d 14 3f 84 3d 31 58 33 be
       -0.039514646 0.09755365 0.06457344 -0.17514111
000350 48 3c 55 3c 7c 81 05 3e 1d e5 14 3e c2 ba 35 3c
       0.01301486 0.13037676 0.14540525 0.01109189
000360 07 db a8 3d 16 63 bf bb 82 90 f8 3d 1f 72 86 3c
       0.08244901 -0.0058406694 0.12136938 0.016411839
000370 6e 30 4e bc ad d4 a8 bd 7f 5c 03 be 87 3b 1b bd
       -0.012584789 -0.0824369 -0.12828253 -0.037898567
000380 02 ad 50 bd d3 bc f2 3d 0f fd 19 3d 74 b9 b8 3d
       -0.050946243 0.118524216 0.03759485 0.090197474
000390 5f 91 1f 3e b3 f5 8d 3d 0f d6 13 3e 6e 1c 91 3d
       0.15582798 0.06931629 0.14437126 0.07085501
0003a0 59 6d cd 3d f5 be 15 3e 5e 9d 3c be 0a 7d 24 3d
       0.10030622 0.14623626 -0.18419406 0.04015831
0003b0 d4 0f c6 3d f9 18 dc bd 24 bf d6 bd de d3 17 bd
       0.09670988 -0.10746951 -0.10485676 -0.037067287
0003c0 b5 a1 a2 bd ea fd dc 3d dd 22 29 3e fc 92 07 3e
       -0.079409994 0.10790618 0.16517206 0.13239664
0003d0 9e a2 d1 bd f6 e4 e7 3d 7f 7e 9c 3d 26 88 89 3c
       -0.10236095 0.11322968 0.07641315 0.016788553
0003e0 90 fa 6c bd 3d 04 e8 3d 86 93 1b 3d fd 5e 4d 3e
       -0.057856143 0.113289334 0.037982486 0.20055766
0003f0 18 f5 ce 3d da 1f 29 bd 3c 6b 9d bd b5 09 21 be
       0.10105342 -0.04129014 -0.07686469 -0.15726359

MatMul_2 f4 [1, 32]
000000 5f ec 7a 3e da d7 5c 3e a4 17 9e be bd 49 20 3e
       0.24504231 0.21566716 -0.3087741 0.15653129
000010 5a 32 73 3c 27 68 a5 be 61 65 1d bc c6 80 5b 3e
       0.014843548 -0.32306024 -0.00960669 0.21435842
000020 a6 d1 00 3e 03 1e e5 3d fc b1 a8 be a4 95 e7 3d
       0.12579975 0.11187365 -0.3294829 0.113078386
000030 61 0b c2 be 60 97 a7 be 44 7d 14 3e d4 5d 17 3e
       -0.37899306 -0.32732677 0.1450091 0.14781886
000040 0c f2 50 3e 0c 4c 87 3d ca 4c 04 3e bf 8d 0b 3e
       0.20404834 0.06606302 0.12919918 0.1362829
000050 d7 9c 49 3e b0 ba 1f 3e 67 c5 8c 3e ab 2b 25 3e
       0.19688736 0.1559856 0.27494356 0.1612994
000060 ca cd a3 be 7d 22 4f 3e 6f 9c 6d 3e 86 92 8d 3e
       -0.31992942 0.20228 0.23204206 0.2765085
000070 05 f2 be be 02 0a a5 be 95 01 16 3e 60 0e 85 3e
       -0.3729402 -0.32234198 0.14649041 0.2598753
